…
, share_embeddings=True, src_word_vec_size=512, start_decay_steps=50000, tensorboard=False, tensorboard_log_dir='runs/onmt', tgt_word_vec_size=512, train_from='', train_steps=300000, transformer_ff=2048, truncated_decoder=0, valid_batch_size=8, valid_steps=10000, warmup_steps=16000, world_size=1)
[2019-10-29 09:03:37,810 INFO]  * vocabulary size. source = 10174; target = 10174; structure = 5002
[2019-10-29 09:03:37,810 INFO] Building model...
[2019-10-29 09:03:51,634 INFO] NMTModel(
  (encoder): TransformerEncoder(
    (embeddings): Embeddings(
      (make_embedding): Sequential(
        (word): Embedding(10174, 512, padding_idx=1)
        (pe): PositionalEncoding(
          (dropout): Dropout(p=0.3)
        )
      )
    )
    (structure_embeddings): Embeddings(
      (make_embedding): Sequential(
        (word): Embedding(5002, 64, padding_idx=1)
      )
    )
    (transformer): ModuleList(
      (0): TransformerEncoderLayer(
        (self_attn): MultiHeadedAttention(
          (linear_keys): Linear(in_features=512, out_features=512, bias=True)
          (linear_values): Linear(in_features=512, out_features=512, bias=True)
          (linear_query): Linear(in_features=512, out_features=512, bias=True)
          (linear_structure_k): Linear(in_features=64, out_features=64, bias=True)
          (linear_structure_v): Linear(in_features=64, out_features=64, bias=True)
          (softmax): Softmax()
          (dropout): Dropout(p=0.3)
          (final_linear): Linear(in_features=512, out_features=512, bias=True)
        )
        (feed_forward): PositionwiseFeedForward(
          (w_1): Linear(in_features=512, out_features=2048, bias=True)
          (w_2): Linear(in_features=2048, out_features=512, bias=True)
          (dropout_1): Dropout(p=0.3)
          (relu): ReLU()
        )
        (att_layer_norm): LayerNorm(torch.Size([512]), eps=1e-06, elementwise_affine=True)
        (ffn_layer_norm): LayerNorm(torch.Size([512]), eps=1e-06, elementwise_affine=True)
        (structure_layer_norm): LayerNorm(torch.Size([64]), eps=1e-06, elementwise_affine=True)
        (dropout): Dropout(p=0.3)
      )
      (1): TransformerEncoderLayer(
        (self_attn): MultiHeadedAttention(
          (linear_keys): Linear(in_features=512, out_features=512, bias=True)
          (linear_values): Linear(in_features=512, out_features=512, bias=True)
          (linear_query): Linear(in_features=512, out_features=512, bias=True)
          (linear_structure_k): Linear(in_features=64, out_features=64, bias=True)
          (linear_structure_v): Linear(in_features=64, out_features=64, bias=True)
          (softmax): Softmax()
          (dropout): Dropout(p=0.3)
          (final_linear): Linear(in_features=512, out_features=512, bias=True)
        )
        (feed_forward): PositionwiseFeedForward(
          (w_1): Linear(in_features=512, out_features=2048, bias=True)
          (w_2): Linear(in_features=2048, out_features=512, bias=True)
          (dropout_1): Dropout(p=0.3)
          (relu): ReLU()
        )
        (att_layer_norm): LayerNorm(torch.Size([512]), eps=1e-06, elementwise_affine=True)
        (ffn_layer_norm): LayerNorm(torch.Size([512]), eps=1e-06, elementwise_affine=True)
        (structure_layer_norm): LayerNorm(torch.Size([64]), eps=1e-06, elementwise_affine=True)
        (dropout): Dropout(p=0.3)
      )
      (2): TransformerEncoderLayer(
        (self_attn): MultiHeadedAttention(
          (linear_keys): Linear(in_features=512, out_features=512, bias=True)
          (linear_values): Linear(in_features=512, out_features=512, bias=True)
          (linear_query): Linear(in_features=512, out_features=512, bias=True)
          (linear_structure_k): Linear(in_features=64, out_features=64, bias=True)
          (linear_structure_v): Linear(in_features=64, out_features=64, bias=True)
          (softmax): Softmax()
          (dropout): Dropout(p=0.3)
          (final_linear): Linear(in_features=512, out_features=512, bias=True)
        )
        (feed_forward): PositionwiseFeedForward(
          (w_1): Linear(in_features=512, out_features=2048, bias=True)
          (w_2): Linear(in_features=2048, out_features=512, bias=True)
          (dropout_1): Dropout(p=0.3)
          (relu): ReLU()
        )
        (att_layer_norm): LayerNorm(torch.Size([512]), eps=1e-06, elementwise_affine=True)
        (ffn_layer_norm): LayerNorm(torch.Size([512]), eps=1e-06, elementwise_affine=True)
        (structure_layer_norm): LayerNorm(torch.Size([64]), eps=1e-06, elementwise_affine=True)
        (dropout): Dropout(p=0.3)
      )
      (3): TransformerEncoderLayer(
        (self_attn): MultiHeadedAttention(
          (linear_keys): Linear(in_features=512, out_features=512, bias=True)
          (linear_values): Linear(in_features=512, out_features=512, bias=True)
          (linear_query): Linear(in_features=512, out_features=512, bias=True)
          (linear_structure_k): Linear(in_features=64, out_features=64, bias=True)
          (linear_structure_v): Linear(in_features=64, out_features=64, bias=True)
          (softmax): Softmax()
          (dropout): Dropout(p=0.3)
          (final_linear): Linear(in_features=512, out_features=512, bias=True)
        )
        (feed_forward): PositionwiseFeedForward(
          (w_1): Linear(in_features=512, out_features=2048, bias=True)
          (w_2): Linear(in_features=2048, out_features=512, bias=True)
          (dropout_1): Dropout(p=0.3)
          (relu): ReLU()
        )
        (att_layer_norm): LayerNorm(torch.Size([512]), eps=1e-06, elementwise_affine=True)
        (ffn_layer_norm): LayerNorm(torch.Size([512]), eps=1e-06, elementwise_affine=True)
        (structure_layer_norm): LayerNorm(torch.Size([64]), eps=1e-06, elementwise_affine=True)
        (dropout): Dropout(p=0.3)
      )
      (4): TransformerEncoderLayer(
        (self_attn): MultiHeadedAttention(
          (linear_keys): Linear(in_features=512, out_features=512, bias=True)
          (linear_values): Linear(in_features=512, out_features=512, bias=True)
          (linear_query): Linear(in_features=512, out_features=512, bias=True)
          (linear_structure_k): Linear(in_features=64, out_features=64, bias=True)
          (linear_structure_v): Linear(in_features=64, out_features=64, bias=True)
          (softmax): Softmax()
          (dropout): Dropout(p=0.3)
          (final_linear): Linear(in_features=512, out_features=512, bias=True)
        )
        (feed_forward): PositionwiseFeedForward(
          (w_1): Linear(in_features=512, out_features=2048, bias=True)
          (w_2): Linear(in_features=2048, out_features=512, bias=True)
          (dropout_1): Dropout(p=0.3)
          (relu): ReLU()
        )
        (att_layer_norm): LayerNorm(torch.Size([512]), eps=1e-06, elementwise_affine=True)
        (ffn_layer_norm): LayerNorm(torch.Size([512]), eps=1e-06, elementwise_affine=True)
        (structure_layer_norm): LayerNorm(torch.Size([64]), eps=1e-06, elementwise_affine=True)
        (dropout): Dropout(p=0.3)
      )
      (5): TransformerEncoderLayer(
        (self_attn): MultiHeadedAttention(
          (linear_keys): Linear(in_features=512, out_features=512, bias=True)
          (linear_values): Linear(in_features=512, out_features=512, bias=True)
          (linear_query): Linear(in_features=512, out_features=512, bias=True)
          (linear_structure_k): Linear(in_features=64, out_features=64, bias=True)
          (linear_structure_v): Linear(in_features=64, out_features=64, bias=True)
          (softmax): Softmax()
          (dropout): Dropout(p=0.3)
          (final_linear): Linear(in_features=512, out_features=512, bias=True)
        )
        (feed_forward): PositionwiseFeedForward(
          (w_1): Linear(in_features=512, out_features=2048, bias=True)
          (w_2): Linear(in_features=2048, out_features=512, bias=True)
          (dropout_1): Dropout(p=0.3)
          (relu): ReLU()
        )
        (att_layer_norm): LayerNorm(torch.Size([512]), eps=1e-06, elementwise_affine=True)
        (ffn_layer_norm): LayerNorm(torch.Size([512]), eps=1e-06, elementwise_affine=True)
        (structure_layer_norm): LayerNorm(torch.Size([64]), eps=1e-06, elementwise_affine=True)
        (dropout): Dropout(p=0.3)
      )
    )
    (layer_norm): LayerNorm(torch.Size([512]), eps=1e-06, elementwise_affine=True)
  )
  (decoder): TransformerDecoder(
    (embeddings): Embeddings(
      (make_embedding): Sequential(
        (word): Embedding(10174, 512, padding_idx=1)
        (pe): PositionalEncoding(
          (dropout): Dropout(p=0.3)
        )
      )
    )
    (transformer_layers): ModuleList(
      (0): TransformerDecoderLayer(
        (self_attn): MultiHeadedAttention(
          (linear_keys): Linear(in_features=512, out_features=512, bias=True)
          (linear_values): Linear(in_features=512, out_features=512, bias=True)
          (linear_query): Linear(in_features=512, out_features=512, bias=True)
          (linear_structure_k): Linear(in_features=64, out_features=64, bias=True)
          (linear_structure_v): Linear(in_features=64, out_features=64, bias=True)
          (softmax): Softmax()
          (dropout): Dropout(p=0.3)
          (final_linear): Linear(in_features=512, out_features=512, bias=True)
        )
        (context_attn): MultiHeadedAttention(
          (linear_keys): Linear(in_features=512, out_features=512, bias=True)
          (linear_values): Linear(in_features=512, out_features=512, bias=True)
          (linear_query): Linear(in_features=512, out_features=512, bias=True)
          (linear_structure_k): Linear(in_features=64, out_features=64, bias=True)
          (linear_structure_v): Linear(in_features=64, out_features=64, bias=True)
          (softmax): Softmax()
          (dropout): Dropout(p=0.3)
          (final_linear): Linear(in_features=512, out_features=512, bias=True)
        )
        (feed_forward): PositionwiseFeedForward(
          (w_1): Linear(in_features=512, out_features=2048, bias=True)
          (w_2): Linear(in_features=2048, out_features=512, bias=True)
          (dropout_1): Dropout(p=0.3)
          (relu): ReLU()
        )
        (layer_norm_1): LayerNorm(torch.Size([512]), eps=1e-06, elementwise_affine=True)
        (layer_norm_2): LayerNorm(torch.Size([512]), eps=1e-06, elementwise_affine=True)
        (drop): Dropout(p=0.3)
      )
      (1): TransformerDecoderLayer(
        (self_attn): MultiHeadedAttention(
          (linear_keys): Linear(in_features=512, out_features=512, bias=True)
          (linear_values): Linear(in_features=512, out_features=512, bias=True)
          (linear_query): Linear(in_features=512, out_features=512, bias=True)
          (linear_structure_k): Linear(in_features=64, out_features=64, bias=True)
          (linear_structure_v): Linear(in_features=64, out_features=64, bias=True)
          (softmax): Softmax()
          (dropout): Dropout(p=0.3)
          (final_linear): Linear(in_features=512, out_features=512, bias=True)
        )
        (context_attn): MultiHeadedAttention(
          (linear_keys): Linear(in_features=512, out_features=512, bias=True)
          (linear_values): Linear(in_features=512, out_features=512, bias=True)
          (linear_query): Linear(in_features=512, out_features=512, bias=True)
          (linear_structure_k): Linear(in_features=64, out_features=64, bias=True)
          (linear_structure_v): Linear(in_features=64, out_features=64, bias=True)
          (softmax): Softmax()
          (dropout): Dropout(p=0.3)
          (final_linear): Linear(in_features=512, out_features=512, bias=True)
        )
        (feed_forward): PositionwiseFeedForward(
          (w_1): Linear(in_features=512, out_features=2048, bias=True)
          (w_2): Linear(in_features=2048, out_features=512, bias=True)
          (dropout_1): Dropout(p=0.3)
          (relu): ReLU()
        )
        (layer_norm_1): LayerNorm(torch.Size([512]), eps=1e-06, elementwise_affine=True)
        (layer_norm_2): LayerNorm(torch.Size([512]), eps=1e-06, elementwise_affine=True)
        (drop): Dropout(p=0.3)
      )
      (2): TransformerDecoderLayer(
        (self_attn): MultiHeadedAttention(
          (linear_keys): Linear(in_features=512, out_features=512, bias=True)
          (linear_values): Linear(in_features=512, out_features=512, bias=True)
          (linear_query): Linear(in_features=512, out_features=512, bias=True)
          (linear_structure_k): Linear(in_features=64, out_features=64, bias=True)
          (linear_structure_v): Linear(in_features=64, out_features=64, bias=True)
          (softmax): Softmax()
          (dropout): Dropout(p=0.3)
          (final_linear): Linear(in_features=512, out_features=512, bias=True)
        )
        (context_attn): MultiHeadedAttention(
          (linear_keys): Linear(in_features=512, out_features=512, bias=True)
          (linear_values): Linear(in_features=512, out_features=512, bias=True)
          (linear_query): Linear(in_features=512, out_features=512, bias=True)
          (linear_structure_k): Linear(in_features=64, out_features=64, bias=True)
          (linear_structure_v): Linear(in_features=64, out_features=64, bias=True)
          (softmax): Softmax()
          (dropout): Dropout(p=0.3)
          (final_linear): Linear(in_features=512, out_features=512, bias=True)
        )
        (feed_forward): PositionwiseFeedForward(
          (w_1): Linear(in_features=512, out_features=2048, bias=True)
          (w_2): Linear(in_features=2048, out_features=512, bias=True)
          (dropout_1): Dropout(p=0.3)
          (relu): ReLU()
        )
        (layer_norm_1): LayerNorm(torch.Size([512]), eps=1e-06, elementwise_affine=True)
        (layer_norm_2): LayerNorm(torch.Size([512]), eps=1e-06, elementwise_affine=True)
        (drop): Dropout(p=0.3)
      )
      (3): TransformerDecoderLayer(
        (self_attn): MultiHeadedAttention(
          (linear_keys): Linear(in_features=512, out_features=512, bias=True)
          (linear_values): Linear(in_features=512, out_features=512, bias=True)
          (linear_query): Linear(in_features=512, out_features=512, bias=True)
          (linear_structure_k): Linear(in_features=64, out_features=64, bias=True)
          (linear_structure_v): Linear(in_features=64, out_features=64, bias=True)
          (softmax): Softmax()
          (dropout): Dropout(p=0.3)
          (final_linear): Linear(in_features=512, out_features=512, bias=True)
        )
        (context_attn): MultiHeadedAttention(
          (linear_keys): Linear(in_features=512, out_features=512, bias=True)
          (linear_values): Linear(in_features=512, out_features=512, bias=True)
          (linear_query): Linear(in_features=512, out_features=512, bias=True)
          (linear_structure_k): Linear(in_features=64, out_features=64, bias=True)
          (linear_structure_v): Linear(in_features=64, out_features=64, bias=True)
          (softmax): Softmax()
          (dropout): Dropout(p=0.3)
          (final_linear): Linear(in_features=512, out_features=512, bias=True)
        )
        (feed_forward): PositionwiseFeedForward(
          (w_1): Linear(in_features=512, out_features=2048, bias=True)
          (w_2): Linear(in_features=2048, out_features=512, bias=True)
          (dropout_1): Dropout(p=0.3)
          (relu): ReLU()
        )
        (layer_norm_1): LayerNorm(torch.Size([512]), eps=1e-06, elementwise_affine=True)
        (layer_norm_2): LayerNorm(torch.Size([512]), eps=1e-06, elementwise_affine=True)
        (drop): Dropout(p=0.3)
      )
      (4): TransformerDecoderLayer(
        (self_attn): MultiHeadedAttention(
          (linear_keys): Linear(in_features=512, out_features=512, bias=True)
          (linear_values): Linear(in_features=512, out_features=512, bias=True)
          (linear_query): Linear(in_features=512, out_features=512, bias=True)
          (linear_structure_k): Linear(in_features=64, out_features=64, bias=True)
          (linear_structure_v): Linear(in_features=64, out_features=64, bias=True)
          (softmax): Softmax()
          (dropout): Dropout(p=0.3)
          (final_linear): Linear(in_features=512, out_features=512, bias=True)
        )
        (context_attn): MultiHeadedAttention(
          (linear_keys): Linear(in_features=512, out_features=512, bias=True)
          (linear_values): Linear(in_features=512, out_features=512, bias=True)
          (linear_query): Linear(in_features=512, out_features=512, bias=True)
          (linear_structure_k): Linear(in_features=64, out_features=64, bias=True)
          (linear_structure_v): Linear(in_features=64, out_features=64, bias=True)
          (softmax): Softmax()
          (dropout): Dropout(p=0.3)
          (final_linear): Linear(in_features=512, out_features=512, bias=True)
        )
        (feed_forward): PositionwiseFeedForward(
          (w_1): Linear(in_features=512, out_features=2048, bias=True)
          (w_2): Linear(in_features=2048, out_features=512, bias=True)
          (dropout_1): Dropout(p=0.3)
          (relu): ReLU()
        )
        (layer_norm_1): LayerNorm(torch.Size([512]), eps=1e-06, elementwise_affine=True)
        (layer_norm_2): LayerNorm(torch.Size([512]), eps=1e-06, elementwise_affine=True)
        (drop): Dropout(p=0.3)
      )
      (5): TransformerDecoderLayer(
        (self_attn): MultiHeadedAttention(
          (linear_keys): Linear(in_features=512, out_features=512, bias=True)
          (linear_values): Linear(in_features=512, out_features=512, bias=True)
          (linear_query): Linear(in_features=512, out_features=512, bias=True)
          (linear_structure_k): Linear(in_features=64, out_features=64, bias=True)
          (linear_structure_v): Linear(in_features=64, out_features=64, bias=True)
          (softmax): Softmax()
          (dropout): Dropout(p=0.3)
          (final_linear): Linear(in_features=512, out_features=512, bias=True)
        )
        (context_attn): MultiHeadedAttention(
          (linear_keys): Linear(in_features=512, out_features=512, bias=True)
          (linear_values): Linear(in_features=512, out_features=512, bias=True)
          (linear_query): Linear(in_features=512, out_features=512, bias=True)
          (linear_structure_k): Linear(in_features=64, out_features=64, bias=True)
          (linear_structure_v): Linear(in_features=64, out_features=64, bias=True)
          (softmax): Softmax()
          (dropout): Dropout(p=0.3)
          (final_linear): Linear(in_features=512, out_features=512, bias=True)
        )
        (feed_forward): PositionwiseFeedForward(
          (w_1): Linear(in_features=512, out_features=2048, bias=True)
          (w_2): Linear(in_features=2048, out_features=512, bias=True)
          (dropout_1): Dropout(p=0.3)
          (relu): ReLU()
        )
        (layer_norm_1): LayerNorm(torch.Size([512]), eps=1e-06, elementwise_affine=True)
        (layer_norm_2): LayerNorm(torch.Size([512]), eps=1e-06, elementwise_affine=True)
        (drop): Dropout(p=0.3)
      )
    )
    (layer_norm): LayerNorm(torch.Size([512]), eps=1e-06, elementwise_affine=True)
  )
  (ddecoder): TransformerDecoder(
    (embeddings): Embeddings(
      (make_embedding): Sequential(
        (word): Embedding(10174, 512, padding_idx=1)
        (pe): PositionalEncoding(
          (dropout): Dropout(p=0.3)
        )
      )
    )
    (transformer_layers): ModuleList(
      (0): TransformerDecoderLayer(
        (self_attn): MultiHeadedAttention(
          (linear_keys): Linear(in_features=512, out_features=512, bias=True)
          (linear_values): Linear(in_features=512, out_features=512, bias=True)
          (linear_query): Linear(in_features=512, out_features=512, bias=True)
          (linear_structure_k): Linear(in_features=64, out_features=64, bias=True)
          (linear_structure_v): Linear(in_features=64, out_features=64, bias=True)
          (softmax): Softmax()
          (dropout): Dropout(p=0.3)
          (final_linear): Linear(in_features=512, out_features=512, bias=True)
        )
        (context_attn): MultiHeadedAttention(
          (linear_keys): Linear(in_features=512, out_features=512, bias=True)
          (linear_values): Linear(in_features=512, out_features=512, bias=True)
          (linear_query): Linear(in_features=512, out_features=512, bias=True)
          (linear_structure_k): Linear(in_features=64, out_features=64, bias=True)
          (linear_structure_v): Linear(in_features=64, out_features=64, bias=True)
          (softmax): Softmax()
          (dropout): Dropout(p=0.3)
          (final_linear): Linear(in_features=512, out_features=512, bias=True)
        )
        (feed_forward): PositionwiseFeedForward(
          (w_1): Linear(in_features=512, out_features=2048, bias=True)
          (w_2): Linear(in_features=2048, out_features=512, bias=True)
          (dropout_1): Dropout(p=0.3)
          (relu): ReLU()
        )
        (layer_norm_1): LayerNorm(torch.Size([512]), eps=1e-06, elementwise_affine=True)
        (layer_norm_2): LayerNorm(torch.Size([512]), eps=1e-06, elementwise_affine=True)
        (drop): Dropout(p=0.3)
      )
      (1): TransformerDecoderLayer(
        (self_attn): MultiHeadedAttention(
          (linear_keys): Linear(in_features=512, out_features=512, bias=True)
          (linear_values): Linear(in_features=512, out_features=512, bias=True)
          (linear_query): Linear(in_features=512, out_features=512, bias=True)
          (linear_structure_k): Linear(in_features=64, out_features=64, bias=True)
          (linear_structure_v): Linear(in_features=64, out_features=64, bias=True)
          (softmax): Softmax()
          (dropout): Dropout(p=0.3)
          (final_linear): Linear(in_features=512, out_features=512, bias=True)
        )
        (context_attn): MultiHeadedAttention(
          (linear_keys): Linear(in_features=512, out_features=512, bias=True)
          (linear_values): Linear(in_features=512, out_features=512, bias=True)
          (linear_query): Linear(in_features=512, out_features=512, bias=True)
          (linear_structure_k): Linear(in_features=64, out_features=64, bias=True)
          (linear_structure_v): Linear(in_features=64, out_features=64, bias=True)
          (softmax): Softmax()
          (dropout): Dropout(p=0.3)
          (final_linear): Linear(in_features=512, out_features=512, bias=True)
        )
        (feed_forward): PositionwiseFeedForward(
          (w_1): Linear(in_features=512, out_features=2048, bias=True)
          (w_2): Linear(in_features=2048, out_features=512, bias=True)
          (dropout_1): Dropout(p=0.3)
          (relu): ReLU()
        )
        (layer_norm_1): LayerNorm(torch.Size([512]), eps=1e-06, elementwise_affine=True)
        (layer_norm_2): LayerNorm(torch.Size([512]), eps=1e-06, elementwise_affine=True)
        (drop): Dropout(p=0.3)
      )
      (2): TransformerDecoderLayer(
        (self_attn): MultiHeadedAttention(
          (linear_keys): Linear(in_features=512, out_features=512, bias=True)
          (linear_values): Linear(in_features=512, out_features=512, bias=True)
          (linear_query): Linear(in_features=512, out_features=512, bias=True)
          (linear_structure_k): Linear(in_features=64, out_features=64, bias=True)
          (linear_structure_v): Linear(in_features=64, out_features=64, bias=True)
          (softmax): Softmax()
          (dropout): Dropout(p=0.3)
          (final_linear): Linear(in_features=512, out_features=512, bias=True)
        )
        (context_attn): MultiHeadedAttention(
          (linear_keys): Linear(in_features=512, out_features=512, bias=True)
          (linear_values): Linear(in_features=512, out_features=512, bias=True)
          (linear_query): Linear(in_features=512, out_features=512, bias=True)
          (linear_structure_k): Linear(in_features=64, out_features=64, bias=True)
          (linear_structure_v): Linear(in_features=64, out_features=64, bias=True)
          (softmax): Softmax()
          (dropout): Dropout(p=0.3)
          (final_linear): Linear(in_features=512, out_features=512, bias=True)
        )
        (feed_forward): PositionwiseFeedForward(
          (w_1): Linear(in_features=512, out_features=2048, bias=True)
          (w_2): Linear(in_features=2048, out_features=512, bias=True)
          (dropout_1): Dropout(p=0.3)
          (relu): ReLU()
        )
        (layer_norm_1): LayerNorm(torch.Size([512]), eps=1e-06, elementwise_affine=True)
        (layer_norm_2): LayerNorm(torch.Size([512]), eps=1e-06, elementwise_affine=True)
        (drop): Dropout(p=0.3)
      )
      (3): TransformerDecoderLayer(
        (self_attn): MultiHeadedAttention(
          (linear_keys): Linear(in_features=512, out_features=512, bias=True)
          (linear_values): Linear(in_features=512, out_features=512, bias=True)
          (linear_query): Linear(in_features=512, out_features=512, bias=True)
          (linear_structure_k): Linear(in_features=64, out_features=64, bias=True)
          (linear_structure_v): Linear(in_features=64, out_features=64, bias=True)
          (softmax): Softmax()
          (dropout): Dropout(p=0.3)
          (final_linear): Linear(in_features=512, out_features=512, bias=True)
        )
        (context_attn): MultiHeadedAttention(
          (linear_keys): Linear(in_features=512, out_features=512, bias=True)
          (linear_values): Linear(in_features=512, out_features=512, bias=True)
          (linear_query): Linear(in_features=512, out_features=512, bias=True)
          (linear_structure_k): Linear(in_features=64, out_features=64, bias=True)
          (linear_structure_v): Linear(in_features=64, out_features=64, bias=True)
          (softmax): Softmax()
          (dropout): Dropout(p=0.3)
          (final_linear): Linear(in_features=512, out_features=512, bias=True)
        )
        (feed_forward): PositionwiseFeedForward(
          (w_1): Linear(in_features=512, out_features=2048, bias=True)
          (w_2): Linear(in_features=2048, out_features=512, bias=True)
          (dropout_1): Dropout(p=0.3)
          (relu): ReLU()
        )
        (layer_norm_1): LayerNorm(torch.Size([512]), eps=1e-06, elementwise_affine=True)
        (layer_norm_2): LayerNorm(torch.Size([512]), eps=1e-06, elementwise_affine=True)
        (drop): Dropout(p=0.3)
      )
      (4): TransformerDecoderLayer(
        (self_attn): MultiHeadedAttention(
          (linear_keys): Linear(in_features=512, out_features=512, bias=True)
          (linear_values): Linear(in_features=512, out_features=512, bias=True)
          (linear_query): Linear(in_features=512, out_features=512, bias=True)
          (linear_structure_k): Linear(in_features=64, out_features=64, bias=True)
          (linear_structure_v): Linear(in_features=64, out_features=64, bias=True)
          (softmax): Softmax()
          (dropout): Dropout(p=0.3)
          (final_linear): Linear(in_features=512, out_features=512, bias=True)
        )
        (context_attn): MultiHeadedAttention(
          (linear_keys): Linear(in_features=512, out_features=512, bias=True)
          (linear_values): Linear(in_features=512, out_features=512, bias=True)
          (linear_query): Linear(in_features=512, out_features=512, bias=True)
          (linear_structure_k): Linear(in_features=64, out_features=64, bias=True)
          (linear_structure_v): Linear(in_features=64, out_features=64, bias=True)
          (softmax): Softmax()
          (dropout): Dropout(p=0.3)
          (final_linear): Linear(in_features=512, out_features=512, bias=True)
        )
        (feed_forward): PositionwiseFeedForward(
          (w_1): Linear(in_features=512, out_features=2048, bias=True)
          (w_2): Linear(in_features=2048, out_features=512, bias=True)
          (dropout_1): Dropout(p=0.3)
          (relu): ReLU()
        )
        (layer_norm_1): LayerNorm(torch.Size([512]), eps=1e-06, elementwise_affine=True)
        (layer_norm_2): LayerNorm(torch.Size([512]), eps=1e-06, elementwise_affine=True)
        (drop): Dropout(p=0.3)
      )
      (5): TransformerDecoderLayer(
        (self_attn): MultiHeadedAttention(
          (linear_keys): Linear(in_features=512, out_features=512, bias=True)
          (linear_values): Linear(in_features=512, out_features=512, bias=True)
          (linear_query): Linear(in_features=512, out_features=512, bias=True)
          (linear_structure_k): Linear(in_features=64, out_features=64, bias=True)
          (linear_structure_v): Linear(in_features=64, out_features=64, bias=True)
          (softmax): Softmax()
          (dropout): Dropout(p=0.3)
          (final_linear): Linear(in_features=512, out_features=512, bias=True)
        )
        (context_attn): MultiHeadedAttention(
          (linear_keys): Linear(in_features=512, out_features=512, bias=True)
          (linear_values): Linear(in_features=512, out_features=512, bias=True)
          (linear_query): Linear(in_features=512, out_features=512, bias=True)
          (linear_structure_k): Linear(in_features=64, out_features=64, bias=True)
          (linear_structure_v): Linear(in_features=64, out_features=64, bias=True)
          (softmax): Softmax()
          (dropout): Dropout(p=0.3)
          (final_linear): Linear(in_features=512, out_features=512, bias=True)
        )
        (feed_forward): PositionwiseFeedForward(
          (w_1): Linear(in_features=512, out_features=2048, bias=True)
          (w_2): Linear(in_features=2048, out_features=512, bias=True)
          (dropout_1): Dropout(p=0.3)
          (relu): ReLU()
        )
        (layer_norm_1): LayerNorm(torch.Size([512]), eps=1e-06, elementwise_affine=True)
        (layer_norm_2): LayerNorm(torch.Size([512]), eps=1e-06, elementwise_affine=True)
        (drop): Dropout(p=0.3)
      )
    )
    (layer_norm): LayerNorm(torch.Size([512]), eps=1e-06, elementwise_affine=True)
  )
  (biaffine): Biaffine(
    (head_mlp): Sequential(
      (0): Linear(in_features=512, out_features=512, bias=True)
      (1): Dropout(p=0.3)
      (2): ReLU()
      (3): Linear(in_features=512, out_features=512, bias=True)
    )
    (dep_mlp): Sequential(
      (0): Linear(in_features=512, out_features=512, bias=True)
      (1): Dropout(p=0.3)
      (2): ReLU()
      (3): Linear(in_features=512, out_features=512, bias=True)
    )
  )
  (generator): Sequential(
    (0): Linear(in_features=512, out_features=10174, bias=True)
    (1): LogSoftmax()
  )
)
[2019-10-29 09:03:51,639 INFO] encoder: 24495232
[2019-10-29 09:03:51,639 INFO] decoder: 51961791
[2019-10-29 09:03:51,639 INFO] * number of parameters: 76457023
[2019-10-29 09:03:51,641 INFO] Starting training on GPU: [0]
[2019-10-29 09:03:51,642 INFO] Start training...
[2019-10-29 09:03:55,046 INFO] Loading train dataset from ./workspace/data/gq_train.0.pt, number of examples: 16833
…
